p1_navigation/checkpoint.pth (torch_old, 28493 bytes, 6 tensors)

fc1.weight f4 [64, 37]
00000000: 0df8 6f3e b30f a5be cf59 b2bd 0e2d 1cbe
00000010: c9cb 893d febe 22be af4f 21bd 3d8d a43e
00000020: 3706 6b3e 1caf 61bf f34a 03be f6da 673d
00000030: 360c 8fbd 8768 aabe ead4 c2bd 62ff 92be
00000040: 0bdf b1be 8a10 c73e 103e 07be 4511 3dbf
00000050: 1a31 32bf 7b42 a53d c8d1 e63d a2b2 ef3d
00000060: d996 6fbe 48ea bcbe b703 c83d 1f3b 86be
00000070: 5d6f c5be cf63 b1be 0b27 69be d618 4cbd
00000080: b125 ac3e 78b9 173d 29ce 72be c56b 983d
00000090: 17a5 e5bd d3da 78be cdf6 023e ffd6 9e3e
000000a0: 862b 6bbd 9532 5fbe 2a03 82bd 101a 5abc
000000b0: 6665 01bf 895d e23d 55a2 24bd cd61 8abd
000000c0: 4193 38be 6064 ae3d 6e21 19be 6881 a43e
000000d0: 18ef 84bd e70f 523e f5a8 1a3e 5b6d 2dbe
000000e0: 8590 16bf 70d6 33bf 6032 22bd 2ce7 8cbd
000000f0: 3113 3fbe fd83 8bbc 4f61 b3be b01e 863e
00000100: 34c2 0f3e 13c1 51bf 417e 84bf 3fe1 86bd
00000110: 2318 3e3d 1095 d93d 7dab 8fbd 317a 2a3e
00000120: 7903 543d 140e f13b d462 94be a0e2 963e
00000130: f47f ea3d 82ad 0bbf 17b8 3cbf 9dd4 67bf
00000140: 202e dbbe cac2 1ebe bbd0 283e 9df6 e5bf
00000150: aa9b 683e 1af5 19bf b187 28be 192e 51bf
00000160: ff37 adbe 972a 6dbf 9132 28bf fc98 093e
00000170: 3c9c 49bf 4fee e0bf 9e12 49be 5e29 863d
00000180: a8d5 96be e413 54bf d643 40bd d8a9 95bf
00000190: cca5 c5be efd1 0cbd 0dea a9be 5b85 0bc0
000001a0: f66e 0fbf a61d 91be afff 17bf 30eb 7bbe
000001b0: 1014 0fbf ae8a 263d 6e00 813d 9040 c6bd
000001c0: a0bd 803e 1360 cfbe a524 8bbe 5cc1 f9be
000001d0: 52ba 4abf eab9 57bf 17f4 4c3e 4c29 7fbf
000001e0: 507a 4cbf dbd3 21bf 045f 32bf 48f3 f9bc
000001f0: 5bec f3bc e373 1bbf 73d9 30bf 8487 47bf
00000200: 3ce2 4d3c 6926 06bf 7617 a93e d650 15bf
00000210: 7d56 71bf 701c 4b3e 55cd 36bf b80c 00c0
00000220: 7322 403e b954 24bf 219f 013e 93ee 09bf
00000230: a45f c0be 97fc eebe 83a4 b0be a651 f63e
00000240: 2a1b 05bf 91c1 7ebf 041f a1bd 883c 19bd
00000250: 69a0 50be c1ba 76bd 8c2a 9bbe 17b2 8bbe
00000260: eaf4 debd 8f76 77bf 2134 aabe 82c0 14bd
00000270: 4f97 1cbf a757 bbbf ec35 45bf dcea 71bd
00000280: 3289 c8be cabc a23e c22e a6bf ed9e 79be
00000290: 0eb1 18bf f181 223d 7874 1bbf 1666 ccbf
000002a0: 962b 7abf 30bf e43b c653 463e a049 3ebf
000002b0: a566 37bf 1a13 03bf 7c1a 9abe 327c b53e
000002c0: 03f3 1bbf 87b0 06c0 2cf5 853a 80d3 fcbe
000002d0: 8915 d53c f9a8 e5be 7b1d b5be 7a83 9f3d
000002e0: 33c7 583c 29ba a23c 6cf0 64bd b070 a8bc
000002f0: ccee d13d c1fd 1e3c 38db 4f3e 1bdd 0cbf
00000300: e713 13be 1296 94bf ef0d 6cc0 7780 c4bc
00000310: 6286 ba3d a97f 973d 859b 3dbd 8072 a3be
00000320: 74b2 023e 7c2f bc3c a4b5 483c 76aa 903d
00000330: c086 89bc 0005 583e 45a8 3d3e 3499 fc3d
00000340: e13a 5ebd e0cb b1bd 341d 8ebd 05aa 943e
00000350: 8fb1 a63e f01f f73c 7dda b6bc c9e6 953c
00000360: 2c02 853e df91 4e3e 9da5 e13d fc96 91bc
00000370: 599e 28bd d4a2 c2bb 1571 9ebe f679 bebe
00000380: 7288 50bd 3625 16bf a695 3abe 8a37 efbe
00000390: d1df f2be 587a da3d b811 fdbe 68e1 18be
000003a0: fd67 c1bd d1cf 2ebf 4dad fa3d 3fef 86be
000003b0: df10 f3be 8740 45bf 999d 04bf 40e0 38be
000003c0: 1b25 2c3e 5a08 2abf 191a c3be 234f abbc
000003d0: 7e88 46bf 1647 61bf 7a54 4a3e a514 45bf
000003e0: 924c fabd 0e0f d2be ba31 59be f2af b7bc
000003f0: 4090 a7be dad6 953e 0df5 39bf 42a5 ffbe
0.23434468 -0.3223854 -0.08708536 -0.15251562 0.06728322 -0.1589317 -0.039382633 0.32139006
0.2295159 -0.8815782 -0.1282156 0.0566053 -0.06984751 -0.33282873 -0.095132664 -0.28710467
-0.3474048 0.38879806 -0.13207269 -0.73854476 -0.69606173 0.08069321 0.11270481 0.117039934
-0.23397388 -0.36897492 0.097663336 -0.2621698 -0.38561526 -0.3464646 -0.227688 -0.049828373
0.33622506 0.03704211 -0.23711456 0.074424304 -0.11213129 -0.24302225 0.1278946 0.31023404
-0.057414554 -0.2179664 -0.0634826 -0.013311878 -0.50545347 0.11052997 -0.040193874 -0.06756935
-0.18024923 0.08515239 -0.14954159 0.3212998 -0.06490916 0.20513879 0.15103514 -0.16936247
-0.5881427 -0.7024908 -0.039598823 -0.0688003 -0.18659665 -0.01703071 -0.35035178 0.26195288
0.14038926 -0.8193523 -1.035103 -0.06585931 0.046409737 0.106241345 -0.07015131 0.16648175
0.051761124 0.0073564146 -0.2898165 0.29469776 0.11450186 -0.54561627 -0.737184 -0.905588
-0.42808628 -0.15503994 0.16485874 -1.7965885 0.22715631 -0.6013962 -0.16458012 -0.81710964
-0.33831784 -0.9264311 -0.6570216 0.13437265 -0.7875402 -1.7572726 -0.19636008 0.06550859
-0.29459882 -0.8284285 -0.046939693 -1.1692457 -0.38603055 -0.034379896 -0.3318638 -2.1800144
-0.5602869 -0.28342932 -0.5937452 -0.24601436 -0.5588999 0.0406596 0.0629891 -0.09680283
0.25144672 -0.40502986 -0.27176395 -0.48780334 -0.7919055 -0.8426806 0.20014988 -0.9967239
-0.79874134 -0.6321389 -0.6967623 -0.030511513 -0.029775789 -0.60723704 -0.690818 -0.77941155
0.0125661455 -0.5240236 0.33025712 -0.5832647 -0.94272596 0.19835067 -0.7140706 -2.0007763
0.18763141 -0.64191777 0.12658359 -0.5387966 -0.37572968 -0.46677086 -0.34500512 0.48109168
-0.51994574 -0.9951411 -0.07867244 -0.037411243 -0.20373692 -0.060236696 -0.30305898 -0.2728431
-0.108865574 -0.9666528 -0.33242896 -0.036316402 -0.6116838 -1.4636124 -0.77035403 -0.05906187
-0.39167172 0.3178466 -1.2983019 -0.24377032 -0.59645164 0.039674703 -0.6072459 -1.5968654
-0.97722757 0.006980799 0.19367895 -0.7433109 -0.71641 -0.5120102 -0.3009833 0.35446316
-0.6091768 -2.1045244 0.0010220162 -0.49380112 0.026011245 -0.44855478 -0.35374054 0.07788749
0.013231087 0.019864159 -0.055893347 -0.020561546 0.10250625 0.009704054 0.20298469 -0.5502488
-0.14363061 -1.1608298 -3.6883504 -0.023987038 0.09107663 0.07397396 -0.046290893 -0.31923294
0.12763387 0.022971861 0.012250338 0.07063763 -0.016787887 0.21095657 0.18521221 0.12333909
-0.05425537 -0.08681464 -0.06939164 0.29035965 0.3255734 0.030166596 -0.02232098 0.018298524
0.2597822 0.20172833 0.11017916 -0.01777219 -0.041166637 -0.005939821 -0.3094565 -0.37202424
-0.050911374 -0.5865053 -0.18221149 -0.4672206 -0.47436383 0.106678665 -0.4942758 -0.14929736
-0.09443662 -0.6828585 0.12240086 -0.26354405 -0.4747381 -0.77051586 -0.51802975 -0.18054295
0.1681103 -0.66418993 -0.38105848 -0.020911759 -0.7755202 -0.87999094 0.19758788 -0.76984626
-0.12221636 -0.4102711 -0.21210375 -0.022422764 -0.32727242 0.2926548 -0.7263954 -0.4993077

fc1.bias f4 [64]
00000000: 8b7e a03c a126 80be 69c1 a3be b725 223d
00000010: a665 613d b1de 203e e0ca 9fbe 9238 44be
00000020: 57da 70bd 8632 c9be cd86 963c ed19 853e
00000030: 0ce6 2cbe ed3b 67bd 2718 c0bd b91d 9fbc
00000040: d4de 23be 528d 97bd 7545 b9bd d99a 68be
00000050: 011f 65bc 3054 18be 7ae6 cd3d dde8 25bb
00000060: 1850 d5bc bc8b f53d 220e 373e 490f e4be
00000070: 0aa9 c13e e925 2bbe 41a5 55be 3ae5 a5be
00000080: 2a79 5e3e 3bd7 61be 00d5 e7be dd77 173d
00000090: 664e 63be 2786 c7bd 4288 86be a7d4 9bbe
000000a0: 4b59 c6be ef4c b03d c693 ef3d f9a8 c5bc
000000b0: 1816 d5bd b8b2 99be c148 04bf 1e92 2bbe
000000c0: 395e 12bf 7105 443c 1224 adbe 00c5 54be
000000d0: 4ae8 60be 333d 8ebd a67c 08bf d503 26bd
000000e0: 3366 b33c 83c6 65be d308 a63c f396 28bd
000000f0: dd2e 8fbe 6c34 b7bc d443 81bd c5df bc3d
0.01959159 -0.25029472 -0.31983498 0.03958675 0.05502858 0.1570995 -0.3120947 -0.19162205
-0.058801975 -0.3929636 0.018374825 0.25996342 -0.16884631 -0.056453634 -0.09379607 -0.019423353
-0.16002971 -0.074000016 -0.09046451 -0.2271532 -0.013984443 -0.14875865 0.100537255 -0.00253158
-0.026039168 0.11989543 0.17876485 -0.44542912 0.3782428 -0.1671368 -0.2086382 -0.32401448
0.21725908 -0.2205476 -0.45279694 0.036979545 -0.22197875 -0.097423844 -0.2627583 -0.30435678
-0.3874 0.08608424 0.116981074 -0.024128424 -0.10404605 -0.30019164 -0.51673514 -0.16754958
-0.5717502 0.011964188 -0.33816582 -0.20778275 -0.21963611 -0.069452666 -0.533152 -0.040531
0.021899318 -0.22439007 0.02026788 -0.04115958 -0.2796544 -0.022363864 -0.06311765 0.09222368

fc2.weight f4 [64, 64]
00000000: c679 913d d859 ccbe 20c9 803e 87f0 98be
00000010: b766 093e 690e a1bd a5fb 1bbf 2c6b c339
00000020: 9cee c6be 63c6 093c 37e4 8dbd d31e ec3d
00000030: d3b9 f7bd 6f8d 1abf 3fe1 5a3e 9b6b b03e
00000040: 06b4 c5bd abae 7f3e 27eb 2abe 8da6 923e
00000050: 0bdc 8a3e 8414 02be 3403 78bc e3fd 123e
00000060: d290 e5be 1a86 07bf 6cc7 c53e cc4e f8bd
00000070: a80c 553e 4b96 8d3d eb97 0e3e 1ae5 31be
00000080: f54b adbd 5ec2 ecbd babe 573e 451d 13be
00000090: 3180 b23d 18d5 ae3e ef57 eebd d551 1ebf
000000a0: 4c34 bf3e 1eab 153e f0b0 acbe 8835 1ebf
000000b0: b957 04be e3d9 583e ad98 ff3a 0ded d43e
000000c0: ff86 153e 779e 453f 795a cc3e 4e42 223d
000000d0: 6d58 d03b 051f e93e 7b39 8fbe 4d70 603e
000000e0: aeba dcbe edaf 223d 12f3 68be 4954 99be
000000f0: e42a 8f3e fdf9 f7bd 2b37 67be 4175 fcbd
00000100: 3ca0 0dbf d194 e4bd 7eae a4bd 76ef d2be
00000110: c774 a23e 460f 183e 2c7f 683e ffdc a33e
00000120: c540 263e adbd 383e a7f2 0f3e 4212 063f
00000130: b6e8 083f 9b01 debe 4aa1 e2bb 98c7 ba3e
00000140: 4c75 853e 74fc ce3e 4da7 afbe be0b 303e
00000150: 0cef 023f 70f9 ea3d 8dce 01bf efd1 4d3f
00000160: c53b 093d 1bc8 3abe 3ecf 57bf dc84 88be
00000170: 2138 173e 5cb6 d33e 1da2 c0ba a08a 3c3e
00000180: 4677 80bf 16a3 4abf 3e8c 0dbe 90ee 74be
00000190: 8723 89be 0377 85be 5ebb d4be 25cd 40be
000001a0: db0b 7e3d afa2 af3e f088 6c3e 2cd0 e4be
000001b0: 6def 8bbe fc5e 03be 8f1a 53bf 40ec 953e
000001c0: b1c7 34bf ae07 39bf 4e16 81bd 677f b9bc
000001d0: b788 323f 5d8a ae3d 9d0d 39be 4510 e73e
000001e0: 4b6e 2fbe df00 f1bd 878f a9be 0ce5 903d
000001f0: b865 34be c33e 143f 0ffa 1ebe 1cfe 203e
00000200: fda2 45be 2df6 0c3e e2cd a03e 2ad1 173d
00000210: 6c9e df3e 5a52 d5be 7af2 dd3d d525 713d
00000220: 38b0 b83e c8e2 d53e 776c f7bd 11d7 2e3e
00000230: 456f 4fbe 9dee c43d 6413 333e 519d bebd
00000240: fb71 4abd cab7 e43e cd5d 9abe cb46 433e
00000250: cbd0 90bd 9ea4 343d 8e8d afbe dfa2 b83e
00000260: 7197 71be 204a 573f 61d6 b1be 0a98 a53e
00000270: 5d0f f6bd fe97 e63e 5ee6 05be 62d0 4c3e
00000280: 69bc a53d a71a 4f3b b8e1 253e 73ee ef3e
00000290: 8562 023e bce9 7dbe 71f3 343d 758f 7b3e
000002a0: f54c ae3e 67b5 2b3e 8ee8 9ebe 28df 14be
000002b0: c81f b13e e37d 383e 1d58 f4bd d1ce 6bbe
000002c0: d1a8 94bd 9294 14bf d893 90bc c2f1 843e
000002d0: c7f9 0a3d 8212 e2be 9251 843d 1dbf ec3e
000002e0: 5c0e 0abf 8a55 d23e abe1 abbd bc65 383c
000002f0: b4e5 dbbb 22d9 243f 24c7 483f 946e a43e
00000300: 5c5e 74be b7e2 ba3b e152 a33d 201c e63e
00000310: 006d 0dbf 3691 a9be 5a80 8abe 074f ccbc
00000320: ed40 c9bf d573 00bf a294 943d bf3a c73e
00000330: b338 053e 8dbf 1f3f bda8 3cbe a1e0 b2bd
00000340: 09f3 53be 5140 2fbf a907 9fbe cfbc a2bd
00000350: 0937 6c3e 83f5 acbe 8546 a0bd ef40 18bf
00000360: d5c9 61bf 7cba 35be f78c 0b3e 7909 e3bd
00000370: c1f6 4ebe 9214 3b3e 764b 9cbf 3078 5cbe
00000380: 9222 ffbe 0338 09be 083d 4dbe 02e7 98bf
00000390: 7237 f13c 17b5 bbbe a60a b7bf 71ef 81bf
000003a0: bd60 c7be 7dd2 d3be 43de 3bbe 9a0e 7bbf
000003b0: 193f 6fbe 05aa 45be 5121 3dbf b2a8 cd3d
000003c0: 2584 acbd f3e6 5ebe c59f 80bf 9089 8abe
000003d0: 678f 01be 33ba 14bf 6ac4 a4bf 6e9d 57bd
000003e0: 1477 5bbf 2177 71bf e639 abbf 19fd 2f3f
000003f0: d88f 2bbf 9c97 b1be 62f6 e2be d0c1 573f
0.071033046 -0.39912295 0.25153446 -0.29871008 0.13418089 -0.07864077 -0.60930854 0.00037273148
-0.3885392 0.0084091155 -0.06928294 0.11529317 -0.1209599 -0.6037206 0.21374987 0.34457096
-0.09653477 0.24968974 -0.16691266 0.28642693 0.27121004 -0.12703139 -0.015137482 0.14354663
-0.44837052 -0.52939 0.3862871 -0.12124404 0.20805609 0.06913432 0.1392514 -0.17372552
-0.08461753 -0.1156051 0.2106885 -0.14366634 0.08715857 0.34146953 -0.11637866 -0.61843616
0.37344587 0.14616057 -0.33728743 -0.6180043 -0.12924089 0.21176867 0.0019500457 0.41587105
0.14602278 0.77194923 0.39912775 0.039614014 0.0063581974 0.4553148 -0.27973542 0.2191784
-0.43111175 0.039718557 -0.22748974 -0.29947117 0.2796241 -0.12108228 -0.22579639 -0.12327052
-0.55322623 -0.11161197 -0.08041094 -0.4119832 0.3172972 0.14849576 0.22704762 0.32004544
0.16235645 0.18041106 0.14057408 0.5237161 0.5348009 -0.433606 -0.0069162 0.36480403
0.26066053 0.4042698 -0.34307328 0.1719198 0.51146007 0.11473358 -0.50705796 0.8039846
0.033504266 -0.18240397 -0.843006 -0.26663864 0.14767505 0.41350067 -0.0014696751 0.18412256
-1.0036399 -0.791551 -0.1382303 -0.2391913 -0.26784918 -0.2606736 -0.415492 -0.18828256
0.062023025 0.34303805 0.23099113 -0.44690073 -0.27331105 -0.12829202 -0.824624 0.29281807
-0.70617205 -0.72277343 -0.063030824 -0.022643758 0.6973986 0.085224845 -0.180716 0.451296
-0.17131917 -0.11767744 -0.33117315 0.07074937 -0.17616928 0.57908267 -0.15525077 0.15721935
-0.19300456 0.13765784 0.31407076 0.03706471 0.43675554 -0.41664392 0.10837264 0.05887397
0.36071944 0.41774583 -0.12081235 0.17074229 -0.2025729 0.09615824 0.17487866 -0.093073495
-0.049425106 0.4467147 -0.3014969 0.19069974 -0.07071074 0.044102304 -0.34287685 0.3606176
-0.23592927 0.8409748 -0.3473387 0.3234256 -0.12014649 0.45037836 -0.1307616 0.20001367
0.08092577 0.003160158 0.16199386 0.4686161 0.12732895 -0.24796194 0.044177476 0.24566443
0.3404309 0.16768418 -0.310368 -0.14538252 0.3459456 0.18016772 -0.11930869 -0.23028113
-0.07258762 -0.580392 -0.017648622 0.25965697 0.033929612 -0.44154745 0.06460871 0.46239558
-0.5392816 0.41080886 -0.08392652 0.011254724 -0.0067107324 0.6439382 0.78428864 0.32115614
-0.2386412 0.005703296 0.07974792 0.44943333 -0.55244446 -0.331186 -0.2705105 -0.024940027
-1.5722939 -0.50176746 0.07254912 0.38912007 0.1300991 0.6240166 -0.18423744 -0.08734251
-0.2069818 -0.68457514 -0.31060532 -0.07946169 0.23067869 -0.3378106 -0.078259505 -0.5947408
-0.88198596 -0.1774692 0.13627993 -0.11085791 -0.20211317 0.18269566 -1.2210529 -0.21530223
-0.49831063 -0.13400273 -0.20042813 -1.1945498 0.029445384 -0.36661598 -1.4300125 -1.0151197
-0.38940993 -0.41371527 -0.18346505 -0.98069155 -0.23363914 -0.19303139 -0.7387896 0.10041942
-0.08423642 -0.21767788 -1.0048758 -0.27058077 -0.1265236 -0.5809662 -1.2872441 -0.05264037
-0.85728574 -0.943224 -1.3377044 0.6874557 -0.67016363 -0.3468598 -0.443286 0.8428011

fc2.bias f4 [64]
00000000: a02b 46be e5be a5be 0de9 313e a462 a53d
00000010: 3818 7b3d f683 8ebe c904 0bbf ee43 ddbe
00000020: 6635 363f 7d99 883f 0535 72be cde3 b03e
00000030: e477 7a3f 53bb 8f3d d1f1 0cbe a2da c63d
00000040: 6fb7 a73c 6c72 dabe bbb9 50be 862a 3e3e
00000050: 51b2 8a3e fc09 123f f142 a0be 27dd 79be
00000060: b040 5fbe 1fbd 8dbe dab9 98bd 6fc2 2abd
00000070: ac2f 32be f78f 353f 4bd5 00be 7200 733e
00000080: dd31 73be cbeb 343e ccb5 163f 91e3 fdbe
00000090: a574 76be 4873 b7be 1f8b 653f 3c24 3b3d
000000a0: c149 673d 89e5 8f3f 3bf9 0c3f 376c 29be
000000b0: 0652 8d3c 4db3 c5be 3445 623f 1e57 bbbd
000000c0: a0c0 f6bc 6fc2 f4be a93f c0be b2c2 863f
000000d0: da81 35bd 86fa ffbe 5a13 383e 35d7 7d3e
000000e0: 8ec7 95be 51cb 65bd 0c03 fdbc 0525 9a3a
000000f0: 4834 02bd a377 233f d536 b93d 625a eebb
-0.19352579 -0.32372203 0.17374058 0.08075455 0.061302394 -0.27835053 -0.54304177 -0.4321589
0.7117523 1.0671841 -0.23653038 0.34548798 0.9783919 0.07018151 -0.1376412 0.0970967
0.02047321 -0.42665422 -0.2038335 0.18570909 0.2708917 0.57046485 -0.31301072 -0.24400769
-0.2180202 -0.2768335 -0.07457323 -0.041689333 -0.17400998 0.709228 -0.12581365 0.23730639
-0.2374949 0.17668073 0.5887115 -0.49587682 -0.24067934 -0.3583014 0.89665407 0.045688853
0.05646682 1.1241924 0.55067796 -0.16545187 0.017251026 -0.38613358 0.88386846 -0.09147476
-0.030121148 -0.4780459 -0.3754857 1.0528166 -0.04431329 -0.49995822 0.17976132 0.24789126
-0.2925381 -0.0561021 -0.030885242 0.00117603 -0.03178814 0.63854426 0.090436615 -0.007273958

fc3.weight f4 [4, 64]
00000000: 8b4f 3e3f d43a 5cbe b3a6 523e 38d4 5dbe
00000010: ef9b 093c 2ef7 19be bf86 423b c9ad 62be
00000020: c158 493e 822f b13e d0db 3c3c e719 563e
00000030: 01f9 a13e 8f41 153e 74fa df3e 01ac 17bd
00000040: c3ea 4f3d c230 e1bd fa6b fb3b 6ec8 273e
00000050: fa67 893e ad82 6f3e 5dd8 8cbe 9856 f1bd
00000060: a30b b73e 2916 32be 9399 5ebe b4c3 e2bc
00000070: 2b3e bd3e 92dc 193e 8153 93bc 6afd d33c
00000080: fd09 a3bd cac7 6f3e a823 9b3d e87b 4cbe
00000090: 56a5 a5bc a51e 513e 06ba 8a3e 8048 6a3e
000000a0: 4b84 8ebe 7367 b83e b975 1f3e 1c1f 8ebd
000000b0: 9c7f b4be b763 8abd 064f 9e3e adeb ecbd
000000c0: ad9a 093f bee8 4bbe fb6c 66bc a004 be3e
000000d0: db1d c63c c3ed 57bf 266e 4cbc d73c 15be
000000e0: 03e6 1ebf 8de0 b53d cf4e 373e 2a74 0d3e
000000f0: ec2a bb3e a915 703e bbe5 21bc 518a 653e
00000100: 57ae 133f 30c8 a53e ac7a 363e 87c9 babd
00000110: de0c 193e fcd5 cbbe 9d92 2ebd 8b7d 79be
00000120: e0b7 cf3e b386 943e 2a64 773d c29b 793e
00000130: 9d9c 793e c92f 713e 3c5b cc3e 2bbc c3bd
00000140: 8da0 c13d 0d29 7dbc 6535 003e 7d91 4c3e
00000150: a13f 883e 25b8 4d3e 6572 9dbe 37cd 50bc
00000160: 7766 ec3e 24f0 debe d04c f9bd 473b bc3c
00000170: 044a f23e b7d2 803e 8194 2b3e cb2b d33d
00000180: b803 45be 4386 2b3e 9458 9f3e 0808 7ebd
00000190: 8e77 183e aa0c 673e da4e a63e b8c6 6d3e
000001a0: 6322 82be d20e ca3e c828 663e ee16 e9bc
000001b0: c72d 88be e3c6 97bd b0e9 a33e f16d 553e
000001c0: f2c8 133f 22aa 1ebe b282 1abe 80e4 8d3e
000001d0: e204 d0bc 5c4b d03c f86b 0fbd e3cf 033b
000001e0: e6ed 263e 444d b13c 4fe3 083e b9ed 9b3d
000001f0: 5b5c 703e aa0a 763e 48f5 15be 5d82 6e3e
00000200: d16c 353d cf28 e33e 3861 ffbd 4bb0 46bc
00000210: 3ac8 663e 7dfe 8bbe 75ce 4a3c 7811 30be
00000220: 6e66 8c3e 4ba6 a53e 06ea 013e 347d 403e
00000230: 8ebe b03e 3255 21be 6ce7 89bd bcb6 1abe
00000240: ed89 713e dbf7 a8be e88b 6c3e 1950 9a3d
00000250: e82a c63d e45f ae3e 89f5 1ebe 7793 08bd
00000260: f69e 3f3e 2619 77be e1fb 8e3c e00f d63d
00000270: 4a31 df3e 6b53 8e3e d015 533e 6393 56be
00000280: 9379 6f3d 79c4 f43c b8a5 353e fb64 393c
00000290: 6eac e4bd 322e 163a 8dd8 953e e473 9a3d
000002a0: 77e4 aebd f004 b83e b807 943e 49c7 403e
000002b0: b2ac a23d 90b9 b33e 8fb4 853e 0e42 acbe
000002c0: 457d b73e 9bea 183e b3c0 583d e480 f83e
000002d0: 5999 ebbe 77a3 dcbe e4e7 de3d e38d 9cbd
000002e0: ab07 ebbe 6183 4f3d 089a 943e f6d6 b33d
000002f0: 51e1 8abd d6b1 483e be5c 8dbd 9b9e 023e
00000300: 01d2 8e3e 0f41 053e 9376 a83e c135 d93c
00000310: f652 72be 1d34 46be e0a9 bcbe 8106 493d
00000320: 9e24 823e 7264 b53e 6349 d93e cb8e 1b3e
00000330: 53fd b93e f6a5 d03d 6c76 4a3e 3194 0ebe
00000340: a642 9e3e 99f7 3cbe 085a 113e e21f 503e
00000350: 3e75 df3c 71f9 8a3e 574a 0cbe fd74 353e
00000360: 4a4f 143e 79f3 ae3e 6334 2abf 7b0f 013e
00000370: 54b3 d13c 404d 583e 5e78 253e 21a5 8f3d
00000380: 6d87 0e3d 7222 393e 78a8 353e 965f 08be
00000390: 14c5 afbe 86d6 1e3f 7233 c33e 9cd0 303e
000003a0: 76e1 67be dd77 bc3e b5a3 3d3e f12a 73be
000003b0: 4063 c23d 3e5d e9bb 684e 803e 0c17 743e
000003c0: 9a45 43ba 4a18 c2bd 687a 0a3e 0c62 c13e
000003d0: 4eb4 2fbf 819f 31bf 2cab b33e fc6e 6b3e
000003e0: b512 e4be 3a9b cc3d 935b 20be adb8 26be
000003f0: dbc2 083e 9112 943d 3d7d 00bf deab 0e3e
0.7434012 -0.21506816 0.20571403 -0.21662986 0.008398994 -0.15035698 0.0029682366 -0.22136606
0.19662763 0.34606558 0.011527017 0.20908318 0.31635287 0.1457579 0.43745768 -0.03702927
0.050760996 -0.10995628 0.007672784 0.16385052 0.2683714 0.23389693 -0.27508822 -0.117840946
0.35751066 -0.17391266 -0.21738271 -0.02768121 0.36961493 0.15025547 -0.017984154 0.025877673
-0.079608895 0.23416057 0.0757516 -0.19969141 -0.02022044 0.20421846 0.2709505 0.22879219
-0.27835307 0.36016425 0.15572251 -0.069395274 -0.35253608 -0.067573 0.30919665 -0.11568389
0.5375164 -0.19913003 -0.014064069 0.37112904 0.024184158 -0.8434717 -0.012477433 -0.1457399
-0.6206972 0.0888072 0.17901157 0.13813844 0.36556184 0.23445763 -0.009881432 0.22416045
0.57687896 0.32379293 0.17820233 -0.091204695 0.14946315 -0.39811695 -0.04262029 -0.24364297
0.40569973 0.29009017 0.06039826 0.24375823 0.2437615 0.23553385 0.39913356 -0.095573746
0.09454451 -0.015451682 0.12520368 0.19977374 0.26611045 0.20089777 -0.3075134 -0.0127442395
0.46171924 -0.43542588 -0.12172854 0.022977484 0.47322094 0.25160763 0.16755868 0.10311087
-0.192397 0.16750436 0.31122267 -0.062019378 0.14889356 0.22563425 0.32482034 0.23220336
-0.2541686 0.39464432 0.22476494 -0.028453317 -0.26597425 -0.074109815 0.32014227 0.2084272
0.57728493 -0.15494588 -0.15088919 0.27713394 -0.025392953 0.02542656 -0.035015076 0.0020112924
0.16301689 0.021643288 0.13367961 0.076137014 0.23472731 0.24027506 -0.14644349 0.23291917
0.04429323 0.44367072 -0.12469715 -0.012126992 0.22537318 -0.27342597 0.012378325 -0.17194164
0.27421898 0.32353434 0.12686929 0.18797761 0.34520382 -0.15755156 -0.06733593 -0.1510877
0.23587771 -0.330016 0.23100245 0.07534809 0.096761525 0.34057534 -0.15523352 -0.03334376
0.18712983 -0.24130687 0.01745409 0.10452247 0.43592292 0.27798018 0.2061379 -0.20954661
0.05846555 0.029878842 0.17738998 0.0113155795 -0.11165701 0.00057289295 0.29266778 0.07541636
-0.0853967 0.35941267 0.2891214 0.18826021 0.07943095 0.3510251 0.26114318 -0.33644146
0.3583776 0.14933245 0.052918147 0.48535836 -0.46015432 -0.43093464 0.108840734 -0.0764425
-0.45904288 0.050662402 0.29023767 0.08781235 -0.06781257 0.19599089 -0.06902455 0.12755816
0.27894595 0.13013099 0.32902965 0.02651489 -0.2366446 -0.19355817 -0.36848354 0.04907847
0.25418562 0.35428196 0.42438802 0.1519119 0.36326084 0.101879045 0.19771737 -0.13923718
0.30910224 -0.18453826 0.141945 0.20324662 0.027277585 0.27143434 -0.13700233 0.17720409
0.14483371 0.3417013 -0.66486186 0.12603562 0.025598206 0.21123219 0.16159198 0.07013918
0.03479712 0.18079546 0.17740047 -0.13317713 -0.34330046 0.62046087 0.38125187 0.17267078
-0.226446 0.36810198 0.1851948 -0.2374685 0.09491587 -0.007121711 0.2505982 0.23836917
-0.0007449031 -0.09477289 0.13523257 0.37770116 -0.686345 -0.6938401 0.3509153 0.22991556
-0.44545522 0.099905446 -0.15659933 -0.16281386 0.13355581 0.07230104 -0.501911 0.1393275

fc3.bias f4 [4]
00000000: 4bb5 763f 8098 1e3f 9bd1 0f3f a4b8 213f
0.9637038 0.61951447 0.5617921 0.63172364
